backend/models/4th_model.pth (torch, 490768 bytes, 30 tensors)

positional_encoding f4 [1, 500, 64]
000000 90 09 34 bc da 8c f6 b9 d0 30 dc 3b 01 f4 a1 bb
       -0.010988608 -0.0004702572 0.006719686 -0.0049424176
000010 2d c4 67 3c 09 3b be 3b 9f bc 9a bb d4 7a 9d bb
       0.014145893 0.0058053774 -0.0047221924 -0.004805902
000020 bd 66 35 3c 9f af ef 3b 5a e8 b7 3b 98 b5 9b bb
       0.011071858 0.007314637 0.0056124153 -0.0047518723
000030 91 f4 ca bb 27 cb 91 b8 f5 d5 08 3a 6e bf ae bb
       -0.0061937054 -6.951979e-05 0.00052198704 -0.005332879
000040 6f a4 02 3c d8 f0 1c bc 91 72 cc b8 47 77 3d bc
       0.007973774 -0.009578906 -9.748818e-05 -0.0115640825
000050 3d bf 0f 3c ff 5e 9e 3b 07 18 01 bc e8 38 91 bb
       0.008773622 0.0048331018 -0.007879264 -0.0044318326
000060 83 a1 b9 3b c7 26 24 3a 95 7f 5d 3b 0e b1 8e 3b
       0.0056650057 0.0006261882 0.0033797969 0.0043546027
000070 bd 1e 69 bb a5 52 ed bb 6e a3 0c 3b ae 78 a0 38
       -0.00355713 -0.007242518 0.0021459716 7.651873e-05
000080 c6 d3 f0 3a 26 b1 a5 3b f9 c9 ba bb b4 ea aa 3b
       0.001837366 0.005056518 -0.0057003465 0.005215967
000090 51 6d 2a 3b 0e 33 64 3c 67 10 48 3c e1 1c dd 3b
       0.00260051 0.013928188 0.012210942 0.0067478274
0000a0 1a 25 a7 3c 30 d2 95 ba 52 a2 8b 3c e5 c6 01 3b
       0.020403434 -0.0011430439 0.017045174 0.0019802388
0000b0 67 9d e1 bb 8e 57 82 bc 2b d2 52 ba 75 3d 8b bb
       -0.006885219 -0.01591089 -0.0008042182 -0.0042492696
0000c0 71 eb 86 bc ad f0 a8 3b 35 4d 1d 3c 1b 7a 33 bb
       -0.01646969 0.005155644 0.009600927 -0.0027386013
0000d0 6a 8a 33 3c ed 76 51 bc 39 90 8b 3b c9 98 ef bb
       0.010958293 -0.012784702 0.004259136 -0.0073119146
0000e0 be 6a c4 3b fb 27 c7 bb 55 32 4f bc 0f c5 55 bc
       0.00599417 -0.006077764 -0.012646277 -0.013047471
0000f0 a6 d8 70 bc 0f 8a d9 3b 62 07 2b bc 1f 78 92 3b
       -0.0147000905 0.0066387723 -0.010438772 0.004469886
000100 00 00 00 00 00 00 00 00 00 00 00 00 00 00 00 00
       0.0 0.0 0.0 0.0
000110 00 00 00 00 00 00 00 00 00 00 00 00 00 00 00 00
       0.0 0.0 0.0 0.0
000120 00 00 00 00 00 00 00 00 00 00 00 00 00 00 00 00
       0.0 0.0 0.0 0.0
000130 00 00 00 00 00 00 00 00 00 00 00 00 00 00 00 00
       0.0 0.0 0.0 0.0
000140 00 00 00 00 00 00 00 00 00 00 00 00 00 00 00 00
       0.0 0.0 0.0 0.0
000150 00 00 00 00 00 00 00 00 00 00 00 00 00 00 00 00
       0.0 0.0 0.0 0.0
000160 00 00 00 00 00 00 00 00 00 00 00 00 00 00 00 00
       0.0 0.0 0.0 0.0
000170 00 00 00 00 00 00 00 00 00 00 00 00 00 00 00 00
       0.0 0.0 0.0 0.0
000180 00 00 00 00 00 00 00 00 00 00 00 00 00 00 00 00
       0.0 0.0 0.0 0.0
000190 00 00 00 00 00 00 00 00 00 00 00 00 00 00 00 00
       0.0 0.0 0.0 0.0
0001a0 00 00 00 00 00 00 00 00 00 00 00 00 00 00 00 00
       0.0 0.0 0.0 0.0
0001b0 00 00 00 00 00 00 00 00 00 00 00 00 00 00 00 00
       0.0 0.0 0.0 0.0
0001c0 00 00 00 00 00 00 00 00 00 00 00 00 00 00 00 00
       0.0 0.0 0.0 0.0
0001d0 00 00 00 00 00 00 00 00 00 00 00 00 00 00 00 00
       0.0 0.0 0.0 0.0
0001e0 00 00 00 00 00 00 00 00 00 00 00 00 00 00 00 00
       0.0 0.0 0.0 0.0
0001f0 00 00 00 00 00 00 00 00 00 00 00 00 00 00 00 00
       0.0 0.0 0.0 0.0
000200 00 00 00 00 00 00 00 00 00 00 00 00 00 00 00 00
       0.0 0.0 0.0 0.0
000210 00 00 00 00 00 00 00 00 00 00 00 00 00 00 00 00
       0.0 0.0 0.0 0.0
000220 00 00 00 00 00 00 00 00 00 00 00 00 00 00 00 00
       0.0 0.0 0.0 0.0
000230 00 00 00 00 00 00 00 00 00 00 00 00 00 00 00 00
       0.0 0.0 0.0 0.0
000240 00 00 00 00 00 00 00 00 00 00 00 00 00 00 00 00
       0.0 0.0 0.0 0.0
000250 00 00 00 00 00 00 00 00 00 00 00 00 00 00 00 00
       0.0 0.0 0.0 0.0
000260 00 00 00 00 00 00 00 00 00 00 00 00 00 00 00 00
       0.0 0.0 0.0 0.0
000270 00 00 00 00 00 00 00 00 00 00 00 00 00 00 00 00
       0.0 0.0 0.0 0.0
000280 00 00 00 00 00 00 00 00 00 00 00 00 00 00 00 00
       0.0 0.0 0.0 0.0
000290 00 00 00 00 00 00 00 00 00 00 00 00 00 00 00 00
       0.0 0.0 0.0 0.0
0002a0 00 00 00 00 00 00 00 00 00 00 00 00 00 00 00 00
       0.0 0.0 0.0 0.0
0002b0 00 00 00 00 00 00 00 00 00 00 00 00 00 00 00 00
       0.0 0.0 0.0 0.0
0002c0 00 00 00 00 00 00 00 00 00 00 00 00 00 00 00 00
       0.0 0.0 0.0 0.0
0002d0 00 00 00 00 00 00 00 00 00 00 00 00 00 00 00 00
       0.0 0.0 0.0 0.0
0002e0 00 00 00 00 00 00 00 00 00 00 00 00 00 00 00 00
       0.0 0.0 0.0 0.0
0002f0 00 00 00 00 00 00 00 00 00 00 00 00 00 00 00 00
       0.0 0.0 0.0 0.0
000300 00 00 00 00 00 00 00 00 00 00 00 00 00 00 00 00
       0.0 0.0 0.0 0.0
000310 00 00 00 00 00 00 00 00 00 00 00 00 00 00 00 00
       0.0 0.0 0.0 0.0
000320 00 00 00 00 00 00 00 00 00 00 00 00 00 00 00 00
       0.0 0.0 0.0 0.0
000330 00 00 00 00 00 00 00 00 00 00 00 00 00 00 00 00
       0.0 0.0 0.0 0.0
000340 00 00 00 00 00 00 00 00 00 00 00 00 00 00 00 00
       0.0 0.0 0.0 0.0
000350 00 00 00 00 00 00 00 00 00 00 00 00 00 00 00 00
       0.0 0.0 0.0 0.0
000360 00 00 00 00 00 00 00 00 00 00 00 00 00 00 00 00
       0.0 0.0 0.0 0.0
000370 00 00 00 00 00 00 00 00 00 00 00 00 00 00 00 00
       0.0 0.0 0.0 0.0
000380 00 00 00 00 00 00 00 00 00 00 00 00 00 00 00 00
       0.0 0.0 0.0 0.0
000390 00 00 00 00 00 00 00 00 00 00 00 00 00 00 00 00
       0.0 0.0 0.0 0.0
0003a0 00 00 00 00 00 00 00 00 00 00 00 00 00 00 00 00
       0.0 0.0 0.0 0.0
0003b0 00 00 00 00 00 00 00 00 00 00 00 00 00 00 00 00
       0.0 0.0 0.0 0.0
0003c0 00 00 00 00 00 00 00 00 00 00 00 00 00 00 00 00
       0.0 0.0 0.0 0.0
0003d0 00 00 00 00 00 00 00 00 00 00 00 00 00 00 00 00
       0.0 0.0 0.0 0.0
0003e0 00 00 00 00 00 00 00 00 00 00 00 00 00 00 00 00
       0.0 0.0 0.0 0.0
0003f0 00 00 00 00 00 00 00 00 00 00 00 00 00 00 00 00
       0.0 0.0 0.0 0.0

lstm.weight_ih_l0 f4 [256, 15]
000000 57 7d bc 3d fa 4c 98 3d 75 64 05 bc 7a b3 7e bb
       0.09203594 0.07436557 -0.008141627 -0.00388643
000010 61 11 25 1b ee a3 9b 3b 42 2a cb bd cb e3 12 bd
       1.3654096e-22 0.0047497666 -0.099201694 -0.03586177
000020 1d bc 34 3b d3 5d cd 3c f6 36 8d 3d 2f b3 2b 3d
       0.0027577945 0.025069153 0.068952486 0.04191893
000030 80 19 17 3d 9c 44 9c 3c 34 84 a1 bd 18 d2 48 bd
       0.036889553 0.019075684 -0.07886544 -0.049028486
000040 57 52 69 bd bb 38 04 3d be ae 48 3d 40 c6 0f ad
       -0.05696329 0.032280665 0.048994772 -8.172629e-12
000050 c4 5b 21 bd 7f 6b b2 3d 1f 41 a0 3c d4 d6 13 bc
       -0.039394155 0.087119095 0.019562302 -0.009023387
000060 e8 cf 9c bc b9 13 f0 bc 8d 52 3a 3d 5c 3a 96 3d
       -0.019142106 -0.02930628 0.045488883 0.0733535
000070 c8 18 f1 bc bd e6 48 bd e5 b1 96 3d 0d cb 9a bd
       -0.029430762 -0.049048174 0.073581494 -0.0755826
000080 af 4a 2a 3d 2d 43 fe bc a0 99 16 13 e6 55 08 bd
       0.04157513 -0.031037891 1.9008405e-27 -0.033285044
000090 6f 95 7f bc f7 f9 e3 3c b2 cf 1f bd 2c a7 64 bd
       -0.015599593 0.027829153 -0.039016433 -0.05582349
0000a0 44 9b 99 bd 97 de 50 3d c2 6a 7a 3d 5f 0c 31 3d
       -0.07500318 0.05099353 0.06113697 0.04322469
0000b0 fc 55 71 3d 44 2b fc bb ef ed a9 bc 0f 5c 93 3c
       0.05891989 -0.0076955874 -0.020743338 0.017988233
0000c0 df 8e 82 3d 33 0a b9 92 28 a2 5d bc d3 8e 23 3d
       0.06374907 -1.1677656e-27 -0.013527431 0.03993113
0000d0 16 6a fa 3b 24 9d 7c bd 86 67 90 3d e1 21 9e bd
       0.007642041 -0.0616733 0.070509955 -0.07721306
0000e0 38 7c 4a ba a7 82 06 3d 97 a3 4d 3c 19 5a dc bc
       -0.00077241985 0.032839444 0.01255121 -0.02689843
0000f0 e3 49 c3 3d c4 cc 68 bc ba b5 83 bd b9 16 7d bd
       0.09535577 -0.014208976 -0.06431146 -0.06178925
000100 a0 ff 80 96 00 9e 44 3d 6f 6c 0e bc 07 35 b4 bc
       -2.0840837e-25 0.048002243 -0.008692845 -0.021997942
000110 04 8e de bc 3d dd fe bb ee 53 64 bd b1 22 b6 bd
       -0.027167328 -0.0077778385 -0.055744104 -0.088933356
000120 a8 f5 18 3b e9 92 0a bd 28 5e a9 bc ae b5 d7 bc
       0.0023339782 -0.03383151 -0.02067478 -0.026331749
000130 ce 9a ac bd 67 f9 a5 bc ed b0 c0 3a 6d b6 84 1c
       -0.08427964 -0.020260526 0.0014701165 8.782183e-22
000140 1a 29 70 3c 9c 89 16 bd cf 96 65 bd 4c bf 48 bc
       0.014658237 -0.03675233 -0.056052025 -0.01225264
000150 e8 3c 86 3c 9f 10 a9 3d 30 6e 14 bd e1 f5 10 3c
       0.016386464 0.08255123 -0.036237895 0.008847685
000160 4f 80 c7 bc 31 b6 94 bd f2 2a 9e 3c 19 d6 56 bd
       -0.024353174 -0.07261313 0.019307587 -0.052450273
000170 aa 42 a6 3c c7 fe 8f bd 72 a3 7b 98 3f f8 0c 3c
       0.02029546 -0.07031017 -3.2523508e-24 0.008604108
000180 55 37 09 bd 28 64 72 3c 80 b3 b7 3c f1 2c db 3c
       -0.033500034 0.014794387 0.02242446 0.026754828
000190 35 b4 66 bd a5 c4 25 bd c5 37 2c bd 54 59 fa 3a
       -0.056324203 -0.040470738 -0.042045373 0.0019100108
0001a0 cd 51 77 bc db af 5a bc 73 ef 06 bc 15 06 81 bd
       -0.015095186 -0.013347591 -0.0082358 -0.06299988
0001b0 a7 fc 60 bd 50 5a 53 92 3b ce b5 bd 2d 47 ea 3d
       -0.054928448 -6.669118e-28 -0.08877226 0.11439357
0001c0 56 59 5b 3d b8 d4 e3 3c 88 59 e1 3d ac b6 a6 bd
       0.053551994 0.027811393 0.11003405 -0.08140311
0001d0 44 ed 53 bd 72 e7 9c 3b 96 76 b0 3c 6f 11 bf 3c
       -0.051739946 0.0047883326 0.021540921 0.023323743
0001e0 b9 2f 88 3d 2c 66 b1 bd d3 3b b2 3d 1c f5 ae 3c
       0.066497274 -0.08662066 0.08702817 0.021357112
0001f0 39 7c 89 93 37 14 0f 3d c1 2c 38 bd 58 df af bd
       -3.4706155e-27 0.034931388 -0.044964556 -0.08587521
000200 0a 6e a3 bc b8 e2 36 3d 56 19 0f 3e 4b 69 9a bd
       -0.019949932 0.04464981 0.13974509 -0.07539614
000210 af 4b 33 bd 6c 2f 40 3d d7 04 ef bc 4a e9 80 3c
       -0.04377335 0.046920225 -0.029177113 0.01573624
000220 de ff 35 3d af 66 50 bd 4b a7 de 3d 00 14 cb 30
       0.044433467 -0.050879177 0.10871752 1.4775878e-09
000230 56 50 17 3d a3 f2 aa bd aa 3e 31 3d c9 cb 19 bd
       0.03694185 -0.083470605 0.04327265 -0.03754786
000240 95 a3 cf bb 04 58 3e bd 49 3c eb bd be 87 7e bd
       -0.006336639 -0.046470657 -0.11486108 -0.062141173
000250 79 cc 60 3d 78 30 89 bd e8 d8 ae bd a8 c2 1c bd
       0.0548825 -0.06698698 -0.08537465 -0.038271576
000260 93 bb ac 3d 09 54 1e bd 2c 43 2b 94 ea 1d cd 3c
       0.084342144 -0.03865436 -8.646541e-27 0.025038678
000270 57 86 59 3d 7e 47 27 3c 44 f0 7d bd 49 fe c2 bc
       0.053106632 0.010209916 -0.061996713 -0.023802893
000280 30 18 ae 3d 6f 0a 28 bd 9b c0 82 3b fb e2 90 bb
       0.08500707 -0.041025575 0.0039902455 -0.0044215894
000290 75 a6 6f bc c3 a7 10 bd 87 33 56 3c ce 79 ef bd
       -0.014627089 -0.03531624 0.0130738085 -0.11693154
0002a0 2f 27 d9 bd 70 67 e0 91 f1 c0 b1 bc bc b5 8c 3c
       -0.10603177 -3.5404717e-28 -0.021698447 0.017176501
0002b0 79 0b ac bd aa e8 fe 3b ae 13 dc bd e9 16 b2 3d
       -0.08400626 0.0077792006 -0.10745941 0.08695776
0002c0 b5 81 0e 3e 79 28 4a 3d 23 f4 9a 3d 3f 8f 31 3d
       0.13916667 0.049355004 0.07566097 0.0433495
0002d0 ab f3 ab bd be 95 cf bd c2 cb dd bc 26 96 e2 bd
       -0.08396085 -0.10135983 -0.027074698 -0.11063795
0002e0 62 a8 70 94 2d 49 b6 bd bb bf e4 3d 7f b1 05 bd
       -1.2150111e-26 -0.08900676 0.11169382 -0.032639977
0002f0 dc 80 9b 3d c2 b6 88 bb 70 1d 94 3d f9 a2 e1 3c
       0.07592937 -0.004172177 0.07232177 0.027543532
000300 7d fe a4 bd aa e4 60 3d 42 c2 8f bd c0 d8 a9 bc
       -0.08056352 0.05490557 -0.070194736 -0.020733237
000310 50 7a e8 3c 27 09 f5 3d 7f 1f cb 3d 9e 31 27 97
       0.028378636 0.11964636 0.09918117 -5.4023236e-25
000320 fa dc c6 bd 88 6c 52 3d bb 33 9b 3d 42 ce 6e bd
       -0.09710117 0.051373035 0.07578226 -0.05830217
000330 8d ff 8a 3d 4a a9 8b bd 90 1e ca bd db 13 6b bd
       0.06787024 -0.06819399 -0.098691106 -0.057391983
000340 c7 c5 18 3d 3b 87 66 3d c3 79 5a 3b f6 f6 b2 3d
       0.03729799 0.05628131 0.0033336736 0.0873851
000350 1e 12 13 bc ff c7 2c bd ab 12 37 32 b4 9e 40 bd
       -0.008976487 -0.04218292 1.06562466e-08 -0.04702635
000360 e8 f7 61 3b ff 75 07 bd 42 d0 83 3c 81 f4 98 bb
       0.003448004 -0.033071514 0.016090516 -0.004667819
000370 8b 1a 1e bc b7 bd 8d bd ce 84 c3 3c ed 5e 07 3d
       -0.009649883 -0.06920951 0.023867037 0.033049513
000380 9f f2 0f bc 3b 6b 3e bc 10 37 ab 3c 8e 2f 84 bd
       -0.008785873 -0.011622245 0.02090028 -0.06454383
000390 db 53 62 bc 48 ca 09 13 b9 a9 e4 3c 84 df ae ba
       -0.013813938 1.7391563e-27 0.027912961 -0.0013341759
0003a0 f8 c7 f0 bc 65 02 3d 3d bf cb 2b 3d 10 fb e0 3c
       -0.029392228 0.04614486 0.041942354 0.027463466
0003b0 8d ed 90 3c b3 ea 86 3b 47 b8 42 3c 9c d0 83 bd
       0.017691398 0.004117334 0.011884755 -0.064362735
0003c0 3c 73 c6 bc 2e 83 ae bd 60 ba 45 bd e9 07 a3 3d
       -0.02422487 -0.08521114 -0.048273444 0.07960493
0003d0 53 6f 3e 11 39 71 88 3d f6 1f 03 bd 22 dd d7 3d
       1.5022662e-28 0.066622205 -0.032012902 0.105402246
0003e0 36 e4 5c 3d fd 10 07 be 45 13 3f bd 3c ed b0 bc
       0.053928576 -0.13190074 -0.046649236 -0.021597497
0003f0 8c 81 07 3d 4a e5 0b 3d b9 20 2d 3d 7a 9e fa 3c
       0.03308253 0.034154214 0.042267535 0.030593146

lstm.weight_hh_l0 f4 [256, 64]
000000 df fb 51 96 2f 2b 75 b1 2e 8f 36 9d b8 e5 e1 a4
       -1.6962362e-25 -3.567674e-09 -2.4161522e-21 -9.7967354e-17
000010 b8 3c 76 93 31 29 86 33 60 51 bd a2 85 3d 44 12
       -3.1079502e-27 6.247354e-08 -5.131471e-18 6.1922524e-28
000020 42 08 f1 93 81 32 9f 13 df 3d 22 b0 4d 6a a4 a4
       -6.0845096e-27 4.0187044e-27 -5.902318e-10 -7.130374e-17
000030 72 68 aa 93 87 9a 22 b0 c4 98 db 90 98 38 eb 2f
       -4.3017024e-27 -5.9154853e-10 -8.661564e-29 4.2786463e-10
000040 4a 15 9d 19 80 a6 b0 8b 4e d1 3b b2 60 4b 13 1d
       1.6242018e-23 -6.8043255e-32 -1.0932423e-08 1.9494256e-21
000050 26 28 0a ac d7 2a 02 ae 3a 73 5d 24 7d 28 96 11
       -1.9633266e-12 -2.9596627e-11 4.8019337e-17 2.369078e-28
000060 8e f3 42 97 be 29 96 93 be 23 d3 12 98 d4 d0 14
       -6.299219e-25 -3.7906484e-27 1.3324783e-27 2.1086486e-26
000070 7f 9b e3 1c 25 4b 91 15 a4 4e 8c 11 c7 6a 1f 95
       1.5061795e-21 5.868359e-26 2.2136571e-28 -3.2194027e-26
000080 b7 b2 81 99 ae a4 42 9e b4 d9 0b a6 78 63 87 99
       -1.341047e-23 -1.03043294e-20 -4.8520355e-16 -1.3998848e-23
000090 f7 2f 34 a7 d6 ae b9 b1 3a 5d 3a 1a 94 6d 98 11
       -2.500602e-15 -5.404085e-09 3.8539206e-23 2.4048904e-28
0000a0 9a ca 0a 2f 7f f1 fb 2c 25 91 d2 11 f8 3a 9a 9a
       1.2623005e-10 7.1606605e-12 3.322161e-28 -6.3788176e-23
0000b0 dc c2 44 b4 60 43 b4 92 ed f9 3a 94 57 cf 0f 33
       -1.8324812e-07 -1.1376206e-27 -9.4398894e-27 3.3483357e-08
0000c0 c4 ae 0a b1 01 15 e1 ad 35 3f 9a 17 c4 bb 06 27
       -2.0180986e-09 -2.5588866e-11 9.967972e-25 1.8698024e-15
0000d0 bd b6 82 a0 b0 86 f4 92 39 c3 b3 24 e8 de 02 b2
       -2.2143783e-19 -1.5431768e-27 7.7959596e-17 -7.617679e-09
0000e0 33 48 1b 12 2d eb a5 2c fa 28 bf 14 f1 92 ba b3
       4.899837e-28 4.715692e-12 1.9302234e-26 -8.6880284e-08
0000f0 b1 12 74 14 95 5e 06 2f ad 64 c1 12 ce aa 89 2c
       1.2322538e-26 1.2220831e-10 1.2204831e-27 3.9127373e-12
000100 b0 90 2b 34 e0 26 92 9f c5 03 a1 b3 91 1b d6 1a
       1.5978253e-07 -6.189772e-20 -7.4978324e-08 8.855286e-23
000110 13 9f b4 91 3d 3f 22 21 c5 7a 9b 95 30 fe 8d 9f
       -2.849703e-28 5.497143e-19 -6.27977e-26 -6.013634e-20
000120 8a 05 0c 94 27 6c af 99 6a 69 dc 14 08 59 13 34
       -7.069286e-27 -1.8138258e-23 2.2255902e-26 1.3722831e-07
000130 be bf 64 12 0c a3 b4 12 06 c4 b4 13 fb a6 8c 93
       7.2180455e-28 1.1399791e-27 4.5631682e-27 -3.5505624e-27
000140 0d 7a a8 14 0c 11 b5 16 d4 50 b2 a7 ef ec 60 14
       1.7011805e-26 2.9252885e-25 -4.949256e-15 1.1355837e-26
000150 46 94 f8 ab f3 b8 19 a7 71 c7 1b a7 c6 b8 32 92
       -1.7662614e-12 -2.1333277e-15 -2.1618689e-15 -5.6394647e-28
000160 28 24 a0 12 a7 78 24 21 d6 b2 2e 12 0f d3 cd 93
       1.0106333e-27 5.5725043e-19 5.512515e-28 -5.1957395e-27
000170 f7 dd 7d 34 e9 c6 0e 15 d4 5a 1b 99 57 9e 0f 9d
       2.3643211e-07 2.8833584e-26 -8.031655e-24 -1.9007752e-21
000180 ae c3 4c b2 79 18 16 a8 eb d4 c3 1b 2c 7c db 9b
       -1.1918855e-08 -8.331979e-15 3.239764e-22 -3.6310755e-22
000190 c5 8e 9d 91 e1 25 30 af 20 7c 0c 32 70 3d e0 b3
       -2.485822e-28 -1.6020564e-10 8.177295e-09 -1.0441988e-07
0001a0 71 e9 7e 9b f1 74 9f 95 20 31 08 9b 50 14 6f 9b
       -2.1085817e-22 -6.440409e-26 -1.126553e-22 -1.977618e-22
0001b0 f7 ca 12 34 00 3f 5d 8e a5 66 03 af b0 ac dc a0
       1.3671148e-07 -2.7270687e-30 -1.1950847e-10 -3.7383725e-19
0001c0 70 9e f7 2c ed fb d6 30 b3 ce e8 99 e2 95 10 9b
       7.0377523e-12 1.5642151e-09 -2.4071723e-23 -1.195983e-22
0001d0 5a 89 5e 26 d5 07 76 b4 3b 51 a9 96 0e 9a 49 14
       7.720787e-16 -2.2913385e-07 -2.7354686e-25 1.0178289e-26
0001e0 54 d4 8a 33 ce ae be 93 1b 66 58 17 f0 5f 7a 16
       6.464748e-08 -4.8135114e-27 6.992224e-25 2.0225112e-25
0001f0 64 e2 8a 33 0a 10 92 26 09 a1 04 1c 98 c9 cf 97
       6.467306e-08 1.0135132e-15 4.388327e-22 -1.3427951e-24
000200 94 7a 75 97 6a e5 1b 9d ce e5 f7 2b b2 a6 29 2d
       -7.9318485e-25 -2.0632683e-21 1.7614189e-12 9.643552e-12
000210 59 71 47 26 4b 2a 29 b0 21 61 f8 15 ee 1e aa 20
       6.919561e-16 -6.1541944e-10 1.00319645e-25 2.8819588e-19
000220 5a 26 e6 94 90 28 04 1d ea c1 ba 2c 1c 68 d4 ad
       -2.3239192e-26 1.7491025e-21 5.3079667e-12 -2.4147843e-11
000230 29 eb ff 1e c6 48 e3 2d fc 36 99 b3 bb e0 9b 18
       2.7096435e-20 2.583923e-11 -7.134619e-08 4.029348e-24
000240 5f b8 04 13 5f 00 67 97 a6 1b f4 13 0f 13 95 93
       1.6751644e-27 -7.4640594e-25 6.1621523e-27 -3.763168e-27
000250 c9 99 01 15 13 10 44 34 b3 00 24 14 33 49 6c 34
       2.6172658e-26 1.825977e-07 8.280022e-27 2.2005842e-07
000260 36 ab 2a 92 8a ea d4 33 4d dc 20 12 66 13 79 b0
       -5.3853575e-28 9.914682e-08 5.075864e-28 -9.061324e-10
000270 c6 ab 39 92 77 f6 5e 2e b7 1f 64 92 40 a4 61 12
       -5.8587434e-28 5.069586e-11 -7.1983206e-28 7.1199935e-28
000280 f0 23 d9 33 f5 7d f1 ac 40 90 7a 12 bf 45 15 9b
       1.0111387e-07 -6.863616e-12 7.906389e-28 -1.2347527e-22
000290 ca 50 80 13 69 8e a0 ae 26 99 fa 9a 30 f1 86 17
       3.2391407e-27 -7.301255e-11 -1.03645e-22 8.720431e-25
0002a0 16 fc 0c 27 93 32 c0 11 1b 9d 4b b3 de 17 46 9a
       1.956556e-15 3.0323428e-28 -4.7407507e-08 -4.096472e-23
0002b0 00 bc cd a1 d0 11 31 ab 67 28 f6 93 58 bb dd 12
       -1.3941104e-18 -6.290775e-13 -6.213897e-27 1.3993245e-27
0002c0 2b 2f 79 b1 b4 d6 a1 2d de a5 26 9b 00 4f 4a 0e
       -3.626108e-09 1.8398928e-11 -1.3784793e-22 2.493646e-30
0002d0 d9 29 5a 9a 53 76 59 34 b2 02 ab b1 6a 1d f3 33
       -4.5115148e-23 2.0252746e-07 -4.9770614e-09 1.132092e-07
0002e0 e3 fb 76 23 35 e7 e1 16 46 f3 df af 20 b1 8d 12
       1.3389026e-17 3.6496623e-25 -4.073632e-10 8.942016e-28
0002f0 88 0b 86 91 06 0b 91 b1 cc 9e 0c b2 aa a0 cb 97
       -2.114858e-28 -4.2213086e-09 -8.185179e-09 -1.3159125e-24
000300 98 a0 28 1a dc 51 1f a5 67 22 1e 25 15 43 42 12
       3.4871312e-23 -1.3818787e-16 1.3715971e-16 6.129829e-28
000310 dc 98 b4 26 5a e2 17 b0 25 63 d3 30 aa 4f 35 ab
       1.2531442e-15 -5.5255145e-10 1.5380449e-09 -6.4414674e-13
000320 10 5a f9 9f f6 c3 29 93 49 3d 1b 2f 1e 4a cd 15
       -1.056046e-19 -2.1427415e-27 1.4118941e-10 8.2915777e-26
000330 11 66 33 b3 e1 6e cc b1 28 f0 4d 34 cb 0b f1 23
       -4.1769514e-08 -5.949787e-09 1.9179481e-07 2.6134267e-17
000340 ed 53 0b 98 b1 23 7b 14 17 69 1f 1b f2 56 f5 11
       -1.80077e-24 1.26793005e-26 1.3186128e-22 3.8707769e-28
000350 6c 34 9d 92 c7 90 93 12 18 71 60 97 a4 4c 0a a8
       -9.921016e-28 9.312695e-28 -7.252105e-25 -7.677158e-15
000360 46 8a 8a 14 81 25 e3 27 8e ed 38 2c 21 0a ea 9e
       1.3988978e-26 6.304582e-15 2.6279842e-12 -2.4779903e-20
000370 e3 9a 8e 96 09 92 19 29 b8 10 04 b2 80 e3 02 a2
       -2.3039085e-25 3.409949e-14 -7.687213e-09 -1.7738723e-18
000380 2d 8d 11 b4 af a2 de 16 aa 5e 64 b0 5a 14 77 b1
       -1.3555537e-07 3.5968702e-25 -8.308044e-10 -3.59548e-09
000390 8b f8 7f 1d c6 b0 02 12 dc 90 84 b2 c7 66 52 12
       3.3877463e-21 4.1238657e-28 -1.5432697e-08 6.6391e-28
0003a0 80 39 0b 9c f2 32 4f 91 77 f4 09 28 82 64 6b 30
       -4.606556e-22 -1.634512e-28 7.658038e-15 8.563533e-10
0003b0 f0 1b 05 14 db 0d b1 ad b8 e2 95 9f 74 c9 11 25
       6.720294e-27 -2.0128723e-11 -6.347903e-20 1.2645e-16
0003c0 3c ab ff 16 33 d2 8c a5 86 ef be 2b 63 89 db 22
       4.1305536e-25 -2.4428565e-16 1.3566793e-12 5.9505533e-18
0003d0 e1 90 dd a1 7b 5f 28 93 2a 93 0a 27 ed 7b 59 27
       -1.5013892e-18 -2.1251657e-27 1.9231125e-15 3.018198e-15
0003e0 f9 dd 26 31 95 93 e6 1d 5a b1 a2 93 69 7f 75 b2
       2.4282356e-09 6.103309e-21 -4.106943e-27 -1.4289847e-08
0003f0 ec f9 d1 92 e4 13 22 95 04 b9 bf 90 1c ba d9 12
       -1.3251365e-27 -3.273133e-26 -7.562128e-29 1.3740505e-27

lstm.bias_ih_l0 f4 [256]
000000 b0 8f 18 bd 1f d6 ae 3d fa a8 39 bc 12 81 54 bd
       -0.037246406 0.08536934 -0.011331791 -0.051880904
000010 d0 ae c7 bb 76 62 9f 3d 97 e2 6d 3d c1 08 3b 3d
       -0.0060938373 0.07782452 0.05807742 0.045662645
000020 1f b3 0c bd b5 14 49 bc e5 37 2f bd 1f 90 b9 bd
       -0.03435051 -0.012273003 -0.042777915 -0.09060692
000030 05 3a 8f 3d 16 1f ea bd 89 33 ca bc a1 30 d0 3d
       0.06993488 -0.114317104 -0.024682777 0.10165525
000040 77 31 a1 3d 9e 91 b7 3c 69 d8 4a bc 50 43 4a 3d
       0.07870763 0.022408303 -0.012380698 0.0493806
000050 e0 f0 a3 bc 1a 56 d7 bd 1e 05 37 bd 48 1b 52 3c
       -0.02001232 -0.105144694 -0.044682615 0.012823887
000060 b5 67 fa bb d9 f7 86 bc 7d c8 59 bd 78 71 f8 3c
       -0.0076417574 -0.016475605 -0.053169716 0.030327544
000070 74 e5 64 3d a4 e2 cd 3c 7e ef 66 bd d5 89 96 3d
       0.055882886 0.025132485 -0.05638074 0.07350508
000080 2a 67 c8 bc a9 95 3d bc aa ec 4a 3d c0 c8 b4 bd
       -0.024463255 -0.011571326 0.049542107 -0.088273525
000090 08 55 c8 b9 0f bd 4b bd 25 dc 2e bd 8c 03 d9 3b
       -0.00038210326 -0.049740847 -0.042690415 0.0066227373
0000a0 07 83 56 3d a8 b1 d6 3d c6 97 27 bd dc a0 a3 bd
       0.05237105 0.10483104 -0.040916227 -0.07989666
0000b0 22 8f 0d 3d d0 22 6a bd d6 4e a9 3c 4f 56 78 bd
       0.03456033 -0.057162106 0.020667475 -0.060629185
0000c0 98 d1 54 bd b3 57 a0 3d fb b8 60 3d 48 4d 85 bc
       -0.051957697 0.07829227 0.05486391 -0.016272202
0000d0 f4 63 88 3d 6b d0 08 3d c9 23 17 bd 59 4a 05 3d
       0.066596895 0.033401888 -0.03689936 0.032541607
0000e0 ed dd 67 bd a0 92 c7 bd 02 6f 5d bc 8a 22 12 3d
       -0.05660813 -0.097447634 -0.013515236 0.03567747
0000f0 39 dc 89 3d 15 7b cb bc 6c a6 be bc 4a 24 b0 3c
       0.06731457 -0.024838964 -0.023272716 0.021501679
000100 b7 f0 4e 12 60 16 85 91 b6 ef 6e 12 f8 66 2d a5
       6.5298843e-28 -2.099749e-28 7.5395025e-28 -1.5040245e-16
000110 8e db 75 13 b0 48 4d b2 3c 3d 8f 92 14 df d4 1b
       3.1031596e-27 -1.1949098e-08 -9.039664e-28 3.521662e-22
000120 db 93 ea 93 2c f9 be 91 d0 32 77 93 07 73 d6 b1
       -5.92157e-27 -3.0130278e-28 -3.1200835e-27 -6.241297e-09
000130 a0 35 bf 14 03 1b a3 1f 2f 8e a0 b1 1f f5 83 a9
       1.9307223e-26 6.907787e-20 -4.6727773e-09 -5.8600904e-14
000140 bf f1 06 99 f2 c9 a7 b1 2e f7 f9 32 67 bb 0d 12
       -6.976458e-24 -4.883298e-09 2.909982e-08 4.4722746e-28
000150 64 54 e2 17 ec 83 57 92 29 9d 9c 19 07 92 aa b3
       1.4626211e-24 -6.8004644e-28 1.6193498e-23 -7.942804e-08
000160 16 12 6f 12 20 e6 5e 91 47 d0 51 13 d6 ba 13 12
       7.5437395e-28 -1.7583625e-28 2.6482197e-27 4.6615314e-28
000170 5a 02 31 92 1b 2f 6e 93 ca 2b 8f 24 70 a1 01 13
       -5.585425e-28 -3.0063048e-27 6.2090546e-17 1.6361684e-27
000180 d8 11 44 12 4d 45 e7 a0 a4 b6 43 33 07 b1 25 25
       6.186869e-28 -3.9178782e-19 4.5568086e-08 1.4371448e-16
000190 2a 4e 12 1f 7b 71 08 b2 02 58 a9 a4 90 ae 8a 98
       3.0981358e-20 -7.942044e-09 -7.344116e-17 -3.5848427e-24
0001a0 35 e1 79 b2 9d 40 24 33 cf a0 3f 95 1e f0 8e b2
       -1.4544914e-08 3.824299e-08 -3.8698998e-26 -1.6640168e-08
0001b0 20 08 f4 13 88 57 1e 2b 3c aa ad b1 d4 5b 09 30
       6.160227e-27 5.625435e-13 -5.054316e-09 4.9970805e-10
0001c0 72 20 20 94 ae 1b c1 12 c8 4c 84 97 1c 8d 07 13
       -8.084334e-27 1.2186836e-27 -8.549682e-25 1.7108968e-27
0001d0 41 80 80 ad dc 36 30 34 d1 61 61 32 9d 7f 14 12
       -1.4608871e-11 1.6411235e-07 1.3118965e-08 4.685786e-28
0001e0 c3 ad 05 17 1c d6 6b 17 81 1d 19 ae 73 aa 32 12
       4.3193936e-25 7.620284e-25 -3.4814377e-11 5.637699e-28
0001f0 da dd 7f 34 68 d1 c5 22 c8 0d c7 1b b4 d0 a1 96
       2.3829435e-07 5.3618674e-18 3.2930694e-22 -2.6142663e-25
000200 54 01 03 be a5 0d 40 bd a4 0d 61 3d 58 78 9d bd
       -0.12793475 -0.046888012 0.05494465 -0.076889694
000210 d7 25 25 3d d9 85 3b bc 41 19 e1 bc 5e f9 74 3d
       0.04031929 -0.011445486 -0.027477862 0.059808128
000220 55 72 00 3e c5 13 27 3d 34 79 f5 3d e7 f0 0d 3d
       0.12543614 0.040790338 0.11986008 0.03465357
000230 d6 ba 32 bd be c4 cc 3d 4e f6 13 3d 49 c5 66 3d
       -0.043635212 0.09998463 0.036123566 0.05634049
000240 f4 21 94 3d c9 45 67 bd f2 c6 bf bd 68 32 dd 3d
       0.072330385 -0.056463037 -0.09364118 0.1080063
000250 b4 7c e7 bc 1b 7a a8 3d a8 12 ad bd a8 e3 19 3d
       -0.028257705 0.08226415 -0.08450824 0.037570626
000260 5e 6c dd bd b6 93 51 bc e2 07 89 3d 19 fc 01 3e
       -0.10811685 -0.012791565 0.06690957 0.12693824
000270 a8 68 d6 bc 6e b8 e0 bd ba 37 7d 3d cb b0 0e bd
       -0.02617295 -0.10972677 0.061820723 -0.03483657
000280 95 8a 51 3b 80 5e 26 bd d8 e2 c2 bd fa 80 f7 bc
       0.003197347 -0.040617466 -0.09515923 -0.030212868
000290 e1 45 02 3d 1d 39 ff 3d 3c db ca bc cf 8a c3 bd
       0.031804923 0.12462065 -0.024762742 -0.0954796
0002a0 a6 fc 77 bd 4c 78 fd bc 98 f3 b3 3d 77 c4 ca bd
       -0.06054368 -0.030941151 0.08786696 -0.09900754
0002b0 bf 96 eb bd d5 0b df bd 26 49 12 3d 31 9d 7e bd
       -0.11503362 -0.10890929 0.03571429 -0.06216163
0002c0 09 e5 e0 bd 75 d7 d0 3c a4 f2 c8 bd 12 51 52 bd
       -0.10981185 0.025493363 -0.09811905 -0.051346846
0002d0 d0 2b 36 3b 3e 75 5e 3d 84 99 da bc e3 b8 c7 3d
       0.002779711 0.05431103 -0.02668453 0.09752061
0002e0 f8 fc b0 3d 12 15 b6 b7 08 20 d9 3d c9 b9 c9 3c
       0.08642 -2.1705902e-05 0.106018126 0.024624722
0002f0 9e e4 a7 bd 87 ef cf bd c4 4c 7b bd bf 93 39 3d
       -0.08197902 -0.10153108 -0.061352506 0.045306917
000300 fc 53 8b bd 9f 81 e3 3c 0f 34 4e bd 82 28 10 3d
       -0.06803128 0.02777177 -0.050342616 0.03519488
000310 e8 e6 06 3d ed 51 3d 3d 88 69 8f bd 44 58 87 3d
       0.032935053 0.04622071 -0.0700255 0.06608632
000320 49 06 7a 3d 15 e4 16 3d 33 7f 06 3c 90 14 92 bd
       0.06104115 0.03683861 0.008209038 -0.07132828
000330 9d 46 43 3d 90 9e a6 bd 5e 07 4a 3d e8 6a 45 3d
       0.047674764 -0.08135712 0.049323432 0.048197657
000340 2b 57 6b bc e5 4e e5 bc 6a e8 48 3d ac fb 66 bd
       -0.014364044 -0.027991721 0.049049772 -0.056392357
000350 b5 83 a3 3d f5 99 89 bd 2a e3 c2 3c bf 5a cf 3c
       0.079841055 -0.06718818 0.02378996 0.025311826
000360 ce 08 be 3d b9 9f 22 bd a4 b9 62 3d 9f c1 1e bc
       0.09279023 -0.039703105 0.055352822 -0.009689718
000370 86 44 a0 3d d4 a2 e3 bc de 7b a9 bd c8 4d c1 3c
       0.0782557 -0.027787603 -0.08275579 0.02359666
000380 21 56 c6 bc 52 c6 92 bd a7 02 0b 3d ef ff 4d bc
       -0.024210991 -0.07166733 0.033938076 -0.012573226
000390 75 7f bc bd 1d bb a6 bd 6d 37 4c bd 0c e8 3c 3a
       -0.09203998 -0.08141158 -0.049857546 0.00072062085
0003a0 97 60 3f 3d e2 bb b1 3c da 91 d5 3c 54 5c 10 bc
       0.046722975 0.021696035 0.026070524 -0.008811075
0003b0 9f 28 08 bd e3 a3 7c 3d 04 f8 47 3d d4 32 98 bd
       -0.033241864 0.061679732 0.04882051 -0.0743157
0003c0 47 62 8d 3c 63 f7 2e 3d 18 33 1f 3a 0e 9f 2e bc
       0.017258776 0.042716395 0.0006072982 -0.010658039
0003d0 ba d8 a7 bd df 2d 87 bc fc ed ed bc 40 d9 d3 bc
       -0.08195634 -0.016501365 -0.029044144 -0.025860429
0003e0 f2 9c 46 bc 05 be c6 bd 67 3d 16 bd d8 74 99 3c
       -0.01212238 -0.09704212 -0.03667965 0.018732473
0003f0 19 c6 16 3b 63 27 8f bd bf 04 85 3c 20 96 34 38
       0.002300626 -0.06989934 0.016237615 4.305516e-05

lstm.bias_hh_l0 f4 [256]
000000 cc e9 c8 3d 23 ef 7b bd 66 46 af bc be 64 b0 bc
       0.09810218 -0.061507355 -0.021395873 -0.021532413
000010 77 f6 88 bc 4c ff 88 3d 56 b9 e9 3c 46 d4 aa bb
       -0.016719086 0.06689319 0.028530758 -0.0052132932
000020 98 7c 56 bd 8d cb 35 bb 76 e8 a0 3a 96 07 88 3d
       -0.052364916 -0.0027739734 0.001227631 0.06642072
000030 be c1 2e bd 07 ea 0e 3d fa cc 34 bd 19 fb 4d bd
       -0.042665236 0.034891155 -0.044140793 -0.050288294
000040 c4 0e 75 3d 53 4c 60 3c 97 97 39 3d e7 51 3c 3d
       0.059828535 0.013690072 0.045310583 0.045976546
000050 7e 37 92 3c ff ed 42 bc 0b 95 57 bd d9 50 02 bd
       0.017848726 -0.011897563 -0.052632373 -0.031815384
000060 e0 eb c4 bc db 74 f4 3c 09 19 d3 bd d5 bf ba bc
       -0.024038255 0.029840877 -0.103075095 -0.02279655
000070 a9 d9 5a bd 37 b2 ea 3d 02 f2 59 bd 42 e5 6b bc
       -0.053430233 0.11459773 -0.053209312 -0.014397921
000080 f7 2b b8 bc 77 8e 1b 3d 7c a7 04 bd 6f c6 e3 3b
       -0.022481902 0.037977662 -0.032386288 0.0069511454
000090 f2 c5 b0 bb f3 e5 15 bd 6a 06 5e 3d 83 3f 89 3d
       -0.0053946907 -0.03659625 0.054205336 0.06701567
0000a0 e2 e7 72 3c 88 cd d8 3c 75 c9 99 bd b4 fd 9c bd
       0.014825793 0.026465192 -0.07509128 -0.076655775
0000b0 20 bf 9b 3c f5 58 5a 3c 82 34 45 3b a6 f1 b2 bd
       0.019012034 0.013326873 0.0030091112 -0.08737497
0000c0 18 0f 3c 3c 39 c9 c7 3c 5c 06 c3 3d dc bf 2a 3d
       0.011478208 0.024387943 0.09522697 0.041686878
0000d0 11 80 42 bc b2 47 41 3d d8 8d a0 bd c8 20 70 3c
       -0.011871354 0.047187515 -0.078395545 0.014656253
0000e0 76 5e 46 bd 81 ec 42 bd 84 1d dd 3c 89 5a 8c bc
       -0.04842993 -0.04758883 0.026991613 -0.017133014
0000f0 c7 fb 62 bc 64 32 99 3d c5 10 87 3d 11 ea 83 3d
       -0.013853974 0.074803144 0.065949954 0.06441129
000100 43 31 fa a0 33 3e 9d ac 7e e2 13 a8 d9 82 4e 34
       -4.2384246e-19 -4.469114e-12 -8.209252e-15 1.9232847e-07
000110 20 73 1a 13 99 b9 97 2d c2 4d 7a 21 d5 bb b8 2d
       1.9494294e-27 1.7249134e-11 8.4806206e-19 2.1001792e-11
000120 80 9f 00 34 37 bb 57 31 b8 63 79 90 ba 6b 72 93
       1.1978955e-07 3.1393037e-09 -4.9183412e-29 -3.0597808e-27
000130 ba 5c ff 13 d8 35 d3 af 96 2b 44 15 2e e6 6c 90
       6.4462485e-27 -3.8418935e-10 3.9616268e-26 -4.6720117e-29
000140 5c dd 33 9d f7 c0 03 99 5f ed 3d 9e 9c 3d d0 26
       -2.3804893e-21 -6.81151e-24 -1.0054664e-20 1.4449599e-15
000150 88 78 b8 1f a9 66 db 1d 48 72 ad 94 91 3f 7e 22
       7.8126433e-20 5.8074965e-21 -1.7513612e-26 3.445707e-18
000160 0f ef 78 92 44 a9 aa 92 2c f0 4a a7 74 fc 4f 19
       -7.8549664e-28 -1.07702355e-27 -2.8163329e-15 1.0752632e-23
000170 2c 15 6c a2 16 6b a0 1d 6a 03 84 b4 88 d3 70 93
       -3.1995172e-18 4.246237e-21 -2.45894e-07 -3.0396552e-27
000180 e0 8a 9d 11 74 9f 12 13 da df 9a 33 9a f4 12 a5
       2.485582e-28 1.8506407e-27 7.211902e-08 -1.2746356e-16
000190 c7 b6 05 12 10 47 e4 8f 8e 82 aa 94 00 56 97 1f
       4.219269e-28 -2.2509908e-29 -1.7217108e-26 6.409326e-20
0001a0 f8 01 ee 11 f7 a5 08 95 08 ab 3d 91 fa 18 a4 12
       3.7550992e-28 -2.7595904e-26 -1.4962174e-28 1.0356012e-27
0001b0 8c 35 ee 98 a6 d4 ff 15 5c 83 16 1c 66 63 1b 2f
       -6.1575627e-24 1.0332918e-25 4.9800615e-22 1.4132481e-10
0001c0 1a 15 e4 14 07 46 ad 94 4b bf a4 92 f6 ca a3 14
       2.303044e-26 -1.7496157e-26 -1.0397012e-27 1.6538848e-26
0001d0 c9 bb 42 a7 96 00 13 91 a4 93 95 b1 3c 86 07 1c
       -2.7024707e-15 -1.1596436e-28 -4.3532555e-09 4.4841247e-22
0001e0 be 0c a0 ab c3 e5 3f 9e 43 d0 05 9c 2a 32 39 b2
       -1.137222e-12 -1.01589694e-20 -4.427518e-22 -1.0779823e-08
0001f0 2a f1 0f 2f 6f b1 82 2d f0 b6 a0 b1 70 7d 0d 34
       1.3091453e-10 1.4858085e-11 -4.6774105e-09 1.3177282e-07
000200 8a 13 f6 bb 0e 8b be bd 32 70 19 3d 0a 1d e7 bd
       -0.0075096535 -0.09303866 0.037460513 -0.11284836
000210 ab 55 5e bd cb 05 52 3d 1d 46 c2 bd e5 bf 66 3d
       -0.054280918 0.051275056 -0.09486029 0.05633535
000220 d1 ce a8 3d b2 96 af bd 2a 1e a1 bc 92 bd 52 bd
       0.08242572 -0.08573665 -0.019667704 -0.05145032
000230 3a 0d e6 3d 7a d2 1c 3d 14 88 f4 bd 3e 6c 32 bd
       0.112329915 0.038286664 -0.11940017 -0.04356026
000240 ab 1e 60 3d 93 5c 0c bd d5 a2 a2 bc df a9 05 3d
       0.054716747 -0.034267973 -0.019853035 0.032632705
000250 14 de 0c 3d 1a eb ae bd 3b 91 b0 3d 91 e4 ae bd
       0.034391478 -0.08540936 0.086214505 -0.08539689
000260 db 1e 43 bd 30 91 be 3d 8c 86 ac bb 4a 2a 5b 3b
       -0.047636848 0.09305036 -0.0052650627 0.0033441954
000270 23 f2 b8 bd 4e 6e c4 3d a8 46 01 3d 2a 0b ed bc
       -0.09030559 0.095913514 0.031561524 -0.028935988
000280 6b 1a 0d bd 00 f3 c3 3d 84 12 f6 bc 3e 21 29 bd
       -0.034449022 0.09567833 -0.030038126 -0.041291468
000290 35 7c 78 bd 2d 7d 22 3d 87 db b2 bd bb 74 ee 3d
       -0.060665328 0.03967016 -0.08733278 0.11643358
0002a0 8e 56 ea 3d b9 6e 10 3d 54 69 e0 39 2e f1 93 bc
       0.1144229 0.035261843 0.00042803085 -0.01805934
0002b0 da 90 dd bd b7 aa d4 bd 22 ad f1 3c d5 23 bd bc
       -0.10818644 -0.10384124 0.029501501 -0.023088375
0002c0 ba fe 81 bc 3e 72 d3 bd 85 5e ec bb 8d d7 d8 bd
       -0.015868533 -0.10324524 -0.007213416 -0.10587988
0002d0 2a e3 ca 3d f2 46 2e 3d cf a6 e8 3c ac a7 b1 bd
       0.09906609 0.042548127 0.028399853 -0.08674559
0002e0 ab 11 cf bd 42 88 50 3a af 26 82 3b b6 f6 66 bd
       -0.10110792 0.00079548743 0.0039718966 -0.056387626
0002f0 af a4 d2 3c ca 2d 30 bd 92 a2 ff bd e7 41 77 3d
       0.025713293 -0.043012418 -0.1248218 0.060365584
000300 a7 e8 6d 3d 1f 96 9c 3c 42 f9 5b 3d 69 dc 9a 3d
       0.058083203 0.019114552 0.053704508 0.07561571
000310 5a b4 d2 bc b6 9d 01 3c cb 37 71 bd bd 06 09 3c
       -0.025720764 0.007911136 -0.0588911 0.008363423
000320 a2 29 72 bd bc 21 09 bd cb 93 47 3d 78 91 a3 bd
       -0.059121735 -0.033479437 0.04872493 -0.0798673
000330 4d c3 d3 3d 01 c7 de bd b5 28 9b 3c 68 91 07 3c
       0.10339985 -0.10877801 0.018940309 0.008274414
000340 df 39 ce 3d 17 c1 88 3d e4 35 c6 bd 8f 21 14 bc
       0.10069632 0.06677454 -0.096782476 -0.009041204
000350 85 7d 3d 3d 2f c4 9d 3d 3f d8 8a bb 1d db 9c 3d
       0.046262283 0.07703435 -0.0042372043 0.0765898
000360 b4 01 ab bd 46 12 7f 3d 5d 4b 8e 3c 2f fa 9a 3d
       -0.08349934 0.062273286 0.01736992 0.0756725
000370 97 8b 5c bd fd ca a8 bd 3f bd b3 3d 57 01 31 3d
       -0.05384406 -0.08241842 0.0877633 0.04321417
000380 0a db 7e bd a1 c0 7e bd 54 10 d6 bc d8 49 a3 bc
       -0.06222061 -0.062195424 -0.026130833 -0.019932672
000390 ab dc b2 bd 18 9b a0 3b ff a3 ab 3d 6c 9b ab bc
       -0.08733495 0.004901301 0.08380889 -0.020948134
0003a0 1e 45 86 3d e3 24 1d bc bd ba 6f bd 34 32 0a 3d
       0.06556152 -0.009591314 -0.058527697 0.033739284
0003b0 3b 7d 8f bc bb d9 7b 3c a8 01 fa 3c 6f 14 83 bd
       -0.01751577 0.015371735 0.030518368 -0.06400382
0003c0 98 88 ad bd 98 a6 1e bd b7 5f 51 3c 3d c9 a6 bd
       -0.08473319 -0.038733095 0.012779168 -0.08143852
0003d0 e3 c4 f5 3c 86 5d cd bd 34 c7 7e bd f2 c3 8e 3c
       0.03000111 -0.10027604 -0.062201694 0.017427418
0003e0 89 bf 4e bd 24 48 cf bd 6c ee ab 3d 57 67 54 3d
       -0.05047563 -0.101211816 0.08395085 0.051856365
0003f0 14 35 43 3d 80 b8 97 bd 69 07 ad 3d a7 ec 3c bc
       0.04765804 -0.074082375 0.08448679 -0.011531032

transformer_encoder.layers.0.self_attn.in_proj_weight f4 [192, 64]
000000 83 18 14 9d 1b dc 90 91 07 79 85 b5 67 a9 0e 92
       -1.960031e-21 -2.2854845e-28 -9.944496e-07 -4.5016104e-28
000010 e5 bf 48 36 a2 77 be 9b 78 25 cd 11 f3 39 00 15
       2.991402e-06 -3.1510174e-22 3.236639e-28 2.5895108e-26
000020 41 cc 92 36 ac 5f 77 b6 cf a1 65 2e f2 c6 d7 27
       4.3749174e-06 -3.6861557e-06 5.2212287e-11 5.9890185e-15
000030 e0 d1 81 36 ea 0f ac 9d 23 74 18 93 aa e9 b6 2f
       3.8689323e-06 -4.5544476e-21 -1.9242357e-27 3.3271635e-10
000040 38 65 ae 92 4d 38 f6 96 8e a2 eb 34 b0 18 19 ae
       -1.1005896e-27 -3.9778974e-25 4.3890435e-07 -3.48101e-11
000050 0a e3 93 31 86 62 1a 31 30 c0 25 91 49 09 f3 b5
       4.3040744e-09 2.2465954e-09 -1.3075427e-28 -1.8107613e-06
000060 bc 0f 88 2e 4a 0d d9 ac 92 1a 50 34 b1 fa 1c 1d
       6.187359e-11 -6.1689863e-12 1.9381176e-07 2.0776033e-21
000070 26 09 1a 9b c8 f8 10 a1 28 c9 9e 96 dd 54 6c 14
       -1.2741537e-22 -4.9118357e-19 -2.5653224e-25 1.19316914e-26
000080 f0 f2 e5 0f ba 08 a4 32 a8 eb fb b6 63 62 40 a1
       2.267472e-29 1.9096081e-08 -7.507817e-06 -6.5182344e-19
000090 49 37 9d b6 8c d2 aa 94 15 22 28 b6 7a b4 5a 1a
       -4.6854007e-06 -1.724866e-26 -2.505379e-06 4.522713e-23
0000a0 7e c2 84 b3 e7 31 ed 9b d6 c9 0b 34 59 7d 12 21
       -6.182107e-08 -3.924061e-22 1.3018811e-07 4.963262e-19
0000b0 f8 ac bf 91 18 68 9f b0 1f 72 9a 96 ab b3 8f 15
       -3.0241087e-28 -1.1598358e-09 -2.4952062e-25 5.8040706e-26
0000c0 e5 40 9b 97 87 67 0e 33 01 09 02 a5 c9 f8 dc b2
       -1.0033022e-24 3.315611e-08 -1.1278753e-16 -2.5724505e-08
0000d0 a9 c5 ce b3 80 e0 83 1a ca 40 5d 31 09 67 8e 99
       -9.628577e-08 5.454303e-23 3.219656e-09 -1.4724071e-23
0000e0 6a 1d e0 98 e0 ef e6 a2 74 88 e3 34 9e df a6 b3
       -5.7932343e-24 -6.2595602e-18 4.2381328e-07 -7.770653e-08
0000f0 4a d9 26 1b ac c8 e8 9e 2c 7c f6 a2 9e 53 96 13
       1.3801408e-22 -2.4646951e-20 -6.6809906e-18 3.7947776e-27
000100 2b 13 e2 94 65 64 ad 2b 79 f3 fb 9f 88 0c 48 92
       -2.2827729e-26 1.2320254e-12 -1.06705427e-19 -6.312432e-28
000110 6a b7 6d 13 4c 68 66 b6 36 79 ef 23 2a 79 08 92
       3.0004036e-27 -3.433338e-06 2.5963767e-17 -4.306338e-28
000120 92 92 d7 12 e6 1b a0 95 7e 04 c1 14 72 e8 f9 90
       1.360454e-27 -6.46675e-26 1.9489792e-26 -9.857132e-29
000130 d4 7a 01 16 40 7f bf 2f a9 d5 5b 34 93 82 7c ad
       1.0459295e-25 3.4833114e-10 2.0473693e-07 -1.4353535e-11
000140 40 95 16 1b 24 db a5 11 8b a3 89 36 b1 30 36 b1
       1.2455934e-22 2.6167466e-28 4.101957e-06 -2.6512164e-09
000150 95 4c ad 31 6a 0d 2c b1 dd 62 b2 91 81 98 19 ad
       5.043669e-09 -2.503692e-09 -2.8144377e-28 -8.730906e-12
000160 74 7c 63 97 00 aa 44 1e 75 f2 44 9f a4 86 94 9f
       -7.350474e-25 1.0411309e-20 -4.170517e-20 -6.290318e-20
000170 52 bf 32 9f e2 90 b7 ac 0f ca f3 2e 42 e2 01 16
       -3.7851223e-20 -5.217258e-12 1.10862534e-10 1.0491931e-25
000180 35 bd 57 12 ea b2 a6 96 29 65 a8 a4 a7 51 86 35
       6.8075254e-28 -2.6931657e-25 -7.302976e-17 1.0007542e-06
000190 43 22 99 b6 94 cd e4 97 80 93 dd 91 21 f2 9e 94
       -4.563744e-06 -1.478605e-24 -3.4958556e-28 -1.6049426e-26
0001a0 2f 20 7c 37 e3 32 22 13 8a 54 a1 35 40 00 44 9e
       1.5027864e-05 2.0472364e-27 1.2020039e-06 -1.0376205e-20
0001b0 ed 2a ce 98 b4 d6 11 1a ce c5 5c 22 af ae 03 a1
       -5.3293096e-24 3.0158733e-23 2.9920277e-18 -4.461572e-19
0001c0 e8 5a 7b 15 8e 4b d6 25 bd 4b 91 32 3c 57 4b 95
       5.076076e-26 3.717428e-16 1.6914663e-08 -4.106434e-26
0001d0 b3 ba 08 24 ea a6 b3 2e a4 de ea 25 70 c7 be b3
       2.964844e-17 8.1696275e-11 4.0743396e-16 -8.883842e-08
0001e0 d6 bb af 97 c0 14 2c aa 5a d9 06 15 f1 ff 96 b4
       -1.1356526e-24 -1.5283868e-13 2.7232545e-26 -2.81259e-07
0001f0 cb 08 be 97 1e d5 4d 37 d6 68 91 36 ae ee 4b 13
       -1.2280682e-24 1.2268572e-05 4.3335413e-06 2.573988e-27
000200 3f 82 06 94 ac 40 88 ad be 21 cb ac 6f 04 27 22
       -6.790958e-27 -1.549013e-11 -5.773353e-12 2.2635067e-18
000210 a3 96 ae b6 70 9b 15 25 31 1e fc 93 86 9f b3 1b
       -5.2031405e-06 1.2976354e-16 -6.3643514e-27 2.9716156e-22
000220 c8 a1 45 1e 28 38 aa 95 d3 3d ed 96 ed 53 3e 37
       1.0462549e-20 -6.875105e-26 -3.8328432e-25 1.1344423e-05
000230 a4 ba 17 9d 1f da 7f 2c 11 0c c9 ae 8e e0 3e 95
       -2.0081175e-21 3.635876e-12 -9.142565e-11 -3.8547337e-26
000240 3c 98 08 9c 5e 9d 34 9a 97 f8 aa b0 2a 57 ed 92
       -4.5195384e-22 -3.7350248e-23 -1.2439781e-09 -1.497829e-27
000250 5e 82 01 95 fb 5c 1a 1b 34 c5 63 18 98 bc e2 1a
       -2.6154184e-26 1.2768625e-22 2.9438624e-24 9.37761e-23
000260 0d f2 07 94 59 2f da aa fc a6 4a 30 93 04 90 b3
       -6.863494e-27 -3.8757433e-13 7.372447e-10 -6.7063546e-08
000270 b9 5a 0b 19 15 c1 8b 36 69 ea a5 1b 98 10 9b 2f
       7.204453e-24 4.1650005e-06 2.7448444e-22 2.8206126e-10
000280 bd 56 fe 9d 83 c9 cc 92 bc e5 6a 98 7c d8 cd b6
       -6.7322925e-21 -1.2923886e-27 -3.0359777e-24 -6.134678e-06
000290 50 3f 04 b5 3f 21 0d b7 4c d8 26 a1 3b 2e a8 92
       -4.9265964e-07 -8.411996e-06 -5.6529254e-19 -1.0613687e-27
0002a0 41 0a 01 af 45 22 19 14 df 94 32 1f e0 51 fb 93
       -1.1736125e-10 7.7312845e-27 3.781611e-20 -6.3442043e-27
0002b0 88 21 91 35 97 42 16 34 b4 c0 62 ab af 66 2c 2e
       1.0813101e-06 1.3994064e-07 -8.055876e-13 3.9199474e-11
0002c0 76 4c fd 92 97 cb 43 12 ae 94 3f 33 e2 2b 08 b4
       -1.5985394e-27 6.1782094e-28 4.4605876e-08 -1.2681951e-07
0002d0 47 1b be 36 5e 3f 78 b7 51 f8 8a b4 ac 8e 03 16
       5.6656168e-06 -1.4796706e-05 -2.5885177e-07 1.0627115e-25
0002e0 53 09 30 37 6e 47 b8 92 59 34 49 90 40 40 12 10
       1.0492588e-05 -1.1629641e-27 -3.9680588e-29 2.884292e-29
0002f0 95 c3 04 2a 50 ee 30 b5 a3 50 37 32 fb b4 2a 92
       1.1791811e-13 -6.59119e-07 1.0670337e-08 -5.3865617e-28
000300 8c e6 78 a5 7b 12 80 1f 9b 9a 89 19 87 a5 b6 91
       -2.1588683e-16 5.424068e-20 1.4227913e-23 -2.881655e-28
000310 a0 4b c4 90 69 b7 b8 8f e2 70 86 13 65 fa 94 b0
       -7.742489e-29 -1.8214448e-29 3.3937667e-27 -1.0839584e-09
000320 aa d1 c1 95 98 9a 72 34 00 8c 22 8e d2 e2 ef 22
       -7.828287e-26 2.2594247e-07 -2.003545e-30 6.5021235e-18
000330 62 e3 a2 99 0e 9a 62 18 78 5c a9 1a 8f f3 22 32
       -1.6842247e-23 2.9287593e-24 7.004615e-23 9.48502e-09
000340 51 f1 be 30 76 ee c6 12 b5 8a 9f 9c 44 02 bd b6
       1.3892906e-09 1.2554342e-27 -1.0557592e-21 -5.6329027e-06
000350 af 7f e8 95 b1 20 b2 34 da 77 65 96 50 e5 19 15
       -9.39055e-26 3.317887e-07 -1.8536291e-25 3.1079e-26
000360 e5 30 20 35 66 8b 85 b2 70 9d e2 b3 e2 b1 9e a0
       5.9675796e-07 -1.5546629e-08 -1.0552583e-07 -2.6883954e-19
000370 48 a3 3b 92 ba 9f b3 13 56 00 1c 1d 4c d5 a3 1a
       -5.9208055e-28 4.5343455e-27 2.0646602e-21 6.775982e-23
000380 06 90 30 37 ae cd 13 9c b8 ed 0d 29 02 93 e2 22
       1.0523951e-05 -4.8904055e-22 3.1514477e-14 6.1413073e-18
000390 94 5f 33 b5 02 c0 5b 34 73 54 8c 9b f4 59 33 94
       -6.682178e-07 2.0465816e-07 -2.321563e-22 -9.054931e-27
0003a0 a2 9b fb 90 0b 2e 8b af 24 34 35 21 af 8e e3 36
       -9.9241834e-29 -2.5316668e-10 6.1394193e-19 6.7817377e-06
0003b0 67 32 a0 92 6c 2f 08 35 6d 24 7d 34 ea 83 12 9f
       -1.0109845e-27 5.0732956e-07 2.3575713e-07 -3.102582e-20
0003c0 ea 10 85 a2 38 dd 60 a2 ac a6 4c 9f 78 81 38 16
       -3.606763e-18 -3.0474773e-18 -4.3336548e-20 1.4904255e-25
0003d0 c1 0e b3 b6 da 80 fe 12 54 b9 d4 18 e1 23 88 11
       -5.3363333e-06 1.6061418e-27 5.498785e-24 2.1479129e-28
0003e0 4b 77 13 a1 17 91 95 91 3e e4 16 1c fd 04 c3 92
       -4.996342e-19 -2.3597473e-28 4.9925833e-22 -1.230746e-27
0003f0 32 1a 01 36 e6 d5 63 93 ed 62 cd 12 00 e8 3b ae
       1.9237746e-06 -2.8756888e-27 1.2961706e-27 -4.2724935e-11

transformer_encoder.layers.0.self_attn.in_proj_bias f4 [192]
000000 00 00 00 00 00 00 00 00 00 00 00 00 00 00 00 00
       0.0 0.0 0.0 0.0
000010 00 00 00 00 00 00 00 00 00 00 00 00 00 00 00 00
       0.0 0.0 0.0 0.0
000020 00 00 00 00 00 00 00 00 00 00 00 00 00 00 00 00
       0.0 0.0 0.0 0.0
000030 00 00 00 00 00 00 00 00 00 00 00 00 00 00 00 00
       0.0 0.0 0.0 0.0
000040 00 00 00 00 00 00 00 00 00 00 00 00 00 00 00 00
       0.0 0.0 0.0 0.0
000050 00 00 00 00 00 00 00 00 00 00 00 00 00 00 00 00
       0.0 0.0 0.0 0.0
000060 00 00 00 00 00 00 00 00 00 00 00 00 00 00 00 00
       0.0 0.0 0.0 0.0
000070 00 00 00 00 00 00 00 00 00 00 00 00 00 00 00 00
       0.0 0.0 0.0 0.0
000080 00 00 00 00 00 00 00 00 00 00 00 00 00 00 00 00
       0.0 0.0 0.0 0.0
000090 00 00 00 00 00 00 00 00 00 00 00 00 00 00 00 00
       0.0 0.0 0.0 0.0
0000a0 00 00 00 00 00 00 00 00 00 00 00 00 00 00 00 00
       0.0 0.0 0.0 0.0
0000b0 00 00 00 00 00 00 00 00 00 00 00 00 00 00 00 00
       0.0 0.0 0.0 0.0
0000c0 00 00 00 00 00 00 00 00 00 00 00 00 00 00 00 00
       0.0 0.0 0.0 0.0
0000d0 00 00 00 00 00 00 00 00 00 00 00 00 00 00 00 00
       0.0 0.0 0.0 0.0
0000e0 00 00 00 00 00 00 00 00 00 00 00 00 00 00 00 00
       0.0 0.0 0.0 0.0
0000f0 00 00 00 00 00 00 00 00 00 00 00 00 00 00 00 00
       0.0 0.0 0.0 0.0
000100 00 00 00 00 00 00 00 00 00 00 00 00 00 00 00 00
       0.0 0.0 0.0 0.0
000110 00 00 00 00 00 00 00 00 00 00 00 00 00 00 00 00
       0.0 0.0 0.0 0.0
000120 00 00 00 00 00 00 00 00 00 00 00 00 00 00 00 00
       0.0 0.0 0.0 0.0
000130 00 00 00 00 00 00 00 00 00 00 00 00 00 00 00 00
       0.0 0.0 0.0 0.0
000140 00 00 00 00 00 00 00 00 00 00 00 00 00 00 00 00
       0.0 0.0 0.0 0.0
000150 00 00 00 00 00 00 00 00 00 00 00 00 00 00 00 00
       0.0 0.0 0.0 0.0
000160 00 00 00 00 00 00 00 00 00 00 00 00 00 00 00 00
       0.0 0.0 0.0 0.0
000170 00 00 00 00 00 00 00 00 00 00 00 00 00 00 00 00
       0.0 0.0 0.0 0.0
000180 00 00 00 00 00 00 00 00 00 00 00 00 00 00 00 00
       0.0 0.0 0.0 0.0
000190 00 00 00 00 00 00 00 00 00 00 00 00 00 00 00 00
       0.0 0.0 0.0 0.0
0001a0 00 00 00 00 00 00 00 00 00 00 00 00 00 00 00 00
       0.0 0.0 0.0 0.0
0001b0 00 00 00 00 00 00 00 00 00 00 00 00 00 00 00 00
       0.0 0.0 0.0 0.0
0001c0 00 00 00 00 00 00 00 00 00 00 00 00 00 00 00 00
       0.0 0.0 0.0 0.0
0001d0 00 00 00 00 00 00 00 00 00 00 00 00 00 00 00 00
       0.0 0.0 0.0 0.0
0001e0 00 00 00 00 00 00 00 00 00 00 00 00 00 00 00 00
       0.0 0.0 0.0 0.0
0001f0 00 00 00 00 00 00 00 00 00 00 00 00 00 00 00 00
       0.0 0.0 0.0 0.0
000200 11 26 97 bb a6 1b 17 3c 70 86 fe ba aa b4 71 ba
       -0.004612692 0.0092229005 -0.0019418728 -0.00092203415
000210 2c dd 61 3a 21 74 a0 3b 2f f5 a9 3b e5 4d da 3b
       0.0008616026 0.004896656 0.005186699 0.006662118
000220 ab f2 07 bc 4e 0f 4b 3c c0 88 49 39 5e 9e 17 3c
       -0.008297603 0.012393786 0.00019219797 0.009254066
000230 c4 62 1d bc 17 44 72 bb e0 7c 0b 3c 50 90 00 bb
       -0.009606067 -0.0036966854 0.008513659 -0.0019617267
000240 85 18 43 ba aa e4 5b bb 80 77 81 3c bf de 8e ba
       -0.00074423134 -0.0033553042 0.015804052 -0.0010900124
000250 38 5f 4c bb 5f 26 ab 3b 39 ad b5 39 46 f6 36 bb
       -0.0031184684 0.00522308 0.0003465207 -0.0027917787
000260 13 27 ab bb 2d 20 c0 ba 02 69 b7 3b 48 8d 7d bb
       -0.005223164 -0.0014658027 0.0055972347 -0.0038688947
000270 e4 dd ef 3a 4f 49 13 ba 01 7c d0 bb 12 49 bc 3b
       0.0018300381 -0.0005618529 -0.0063624387 0.0057460153
000280 63 93 35 3c 38 25 a4 3b 23 7c 04 3c 28 e9 a8 3b
       0.011082503 0.0050093196 0.008086237 0.0051547475
000290 9d a7 7d ba 7f f5 d7 3b 7e 4c d3 3b 64 8b 84 3b
       -0.00096761604 0.0065905447 0.0064483276 0.004044937
0002a0 60 57 c9 bb 73 5a 38 bc 80 bf b3 bb bc ef 03 bc
       -0.006144449 -0.0112520335 -0.005485475 -0.008052763
0002b0 3e bf a1 3b 85 e1 35 bb a0 f5 f9 bb d2 9c 46 bb
       0.004936128 -0.0027752828 -0.0076281577 -0.0030305875
0002c0 15 68 63 bb 11 ee 25 bb a3 a2 aa 3b ce 04 d1 bb
       -0.003469949 -0.00253189 0.005207376 -0.0063787466
0002d0 c1 fd c2 bb d9 44 20 3c c9 31 67 3b dc c6 27 bb
       -0.00595066 0.00978204 0.0035277477 -0.0025600707
0002e0 21 59 1c bc 28 79 cc ba 66 01 0a bc e3 cf a3 bb
       -0.009542734 -0.0015600072 -0.008423185 -0.0049991473
0002f0 ef d6 17 3c bb dd 6a 3b 42 69 ee bb 53 ad 01 3a
       0.009267553 0.0035837728 -0.0072757313 0.0004946787
